models/stgcn_weights.pt (torch, 35237 bytes, 10 tensors)

in_proj.weight f4 [32, 11]
0	0xbea40fa2	-0.32043177
1	0x3e89857e	0.2685966
2	0xbd8bd25f	-0.068272345
3	0xbd038890	-0.032112658
4	0x3db55268	0.08853608
5	0xbe49d8d8	-0.19711626
6	0x3e09845b	0.13429396
7	0xbd000280	-0.031252384
8	0x3c979852	0.01850525
9	0x3df27de0	0.11840415
10	0xbe163905	-0.14670189
11	0x3e78e5d3	0.24306421
12	0xbe43a50b	-0.19105928
13	0xbe2e7ec2	-0.17040542
14	0x3cc62d90	0.024191648
15	0x3e491f6a	0.1964089
16	0xbd87e79b	-0.06635972
17	0x3e68b40a	0.2272493
18	0x3d3b47bb	0.045722704
19	0xbcff067b	-0.03113102
20	0xbdabf084	-0.08395484
21	0x3d2ab40c	0.041675612
22	0x3eaf0757	0.34185287
23	0x3e593bb3	0.2121418
24	0xbe6de29c	-0.23230976
25	0xbd886bee	-0.06661211
26	0xbdbcbf74	-0.09216204
27	0xbd608288	-0.054811984
28	0xbe1ce4f7	-0.15321718
29	0xbc97962c	-0.018504225
30	0xbe23a8ba	-0.15982333
31	0xbc24b13c	-0.010052022
32	0xbb5f8677	-0.0034107247
33	0x3ec55bab	0.385465
34	0x3de79283	0.11307242
35	0x3da3363c	0.07969329
36	0xbe413484	-0.1886769
37	0xbdea3d84	-0.114375144
38	0xbe779515	-0.24177964
39	0x3d9399d1	0.072070725
40	0x3d0f3816	0.034965597
41	0xbe5aa39a	-0.21351472
42	0xbd3db91f	-0.046319123
43	0xbd767328	-0.060168415
44	0xbce231d9	-0.02761166
45	0xbee01fa9	-0.43774155
46	0x3e97a59f	0.29618546
47	0x3e9855a4	0.2975284
48	0xbdd1cd9c	-0.10244295
49	0xbdb58526	-0.08863287
50	0x3d332092	0.043732233
51	0x3d3ff2cb	0.046862405
52	0xbe52805e	-0.2055678
53	0x3d56b525	0.052418847
54	0x3d93d899	0.07219047
55	0x3eb320e0	0.3498602
56	0xbe9fe9dd	-0.3123311
57	0x3e2106d4	0.15725261
58	0xbdefafc8	-0.117034495
59	0x3e83835e	0.25686163
60	0x3e41d8b4	0.18930322
61	0xbe572e92	-0.21013859
62	0x3e47e515	0.19520982
63	0xbe1255a6	-0.14290485
64	0xbea228bc	-0.31671703
65	0xbdb54dd0	-0.08852732
66	0xbe95db42	-0.29268843
67	0xbb10d2a2	-0.0022098203
68	0x3e343710	0.1759913
69	0xbe07c447	-0.13258468
70	0x3cce76b0	0.025203079
71	0xbe35ccd8	-0.17753923
72	0xbe20b338	-0.15693367
73	0xbe3bda69	-0.18345036
74	0x3c948856	0.018131416
75	0x3dfc4502	0.1231785
76	0xbce2e738	-0.027698144
77	0xbe17b550	-0.14815259
78	0x3e473062	0.1945205
79	0x3ea90018	0.33007884
80	0x3e6cbc04	0.23118597
81	0xbe2756fa	-0.16341773
82	0x3dadcc39	0.08486218
83	0xbd8bf35d	-0.06833527
84	0xbd794ded	-0.06086533
85	0x3db22a72	0.08699502
86	0xbe06cbbb	-0.13163655
87	0xbdd9929a	-0.10623665
88	0xbe698d73	-0.22807865
89	0xbdb760c8	-0.089540064
90	0x3d399c9b	0.045315366
91	0x3e8e809a	0.2783249
92	0xbd798288	-0.0609155
93	0xba97cb34	-0.0011580945
94	0x3d533df3	0.05157275
95	0xbcd29ba3	-0.025708979
96	0x3e354427	0.1770178
97	0xbe77fc25	-0.2421728
98	0x3e30ea37	0.17276846
99	0xbedf2e10	-0.4358983
100	0xbe2c16ed	-0.1680562
101	0x3d901045	0.07034353
102	0xbdfca194	-0.12335506
103	0xbe3a1ef6	-0.18175873
104	0xbdf906e3	-0.12159517
105	0xbe5a97e2	-0.21347001
106	0xbd757cee	-0.059933595
107	0xbdd9f69b	-0.106427394
108	0xbe5522b4	-0.2081402
109	0x3de780f5	0.113038935
110	0x3eab02e8	0.33400655
111	0x3e02df7c	0.12780565
112	0x3ac32616	0.001488867
113	0xbe6571d2	-0.224067
114	0xbe2e6289	-0.17029776
115	0xbcc4e80a	-0.024036426
116	0xbe50037e	-0.20313832
117	0xbddade5c	-0.10686943
118	0x3e7a5f7d	0.24450488
119	0xbea74b1d	-0.32674494
120	0x3e308e37	0.1724175
121	0x3e951655	0.291186
122	0x3e947ccc	0.29001462
123	0x3e072316	0.13196978
124	0x3e0488ce	0.12942812
125	0xbe7c3b38	-0.24631965
126	0xbe88b448	-0.26700044
127	0xbe2d14df	-0.16902493
128	0xbdbf7058	-0.093476
129	0xbdc22441	-0.09479571
130	0x3dd01648	0.101605
131	0x3d8939a2	0.06700446
132	0xbe05e269	-0.1307465
133	0x3e3e430f	0.18580268
134	0xbc2ae613	-0.0104308305
135	0xbe0c9bc6	-0.13731298
136	0x3d965828	0.07341033
137	0x3d8f6267	0.07001191
138	0xbce2ea04	-0.027699478
139	0xbdae4939	-0.0851006
140	0xbe854783	-0.26031122
141	0xbcae9c04	-0.021314628
142	0x3c9a53da	0.018838812
143	0x3da1e8c8	0.079057276
144	0x3edbbb9e	0.42916578
145	0xbde9d47b	-0.114174806
146	0xbe89e38a	-0.2693141
147	0xba8c4a00	-0.0010703206
148	0xbdb42a3c	-0.08797118
149	0x3c3e060a	0.0115981195
150	0xbd963347	-0.07333999
151	0x3dfc575d	0.12321351
152	0xbe167366	-0.14692459
153	0x3e42c06a	0.19018713
154	0xbead3032	-0.33825833
155	0xbc805ce3	-0.015669292
156	0xbe5ca45e	-0.21547076
157	0x3c305ea0	0.010764748
158	0x3e6e31f0	0.23261237
159	0x3e64a757	0.2232946
160	0x3dbe1688	0.09281641
161	0x3ea334ec	0.31876314
162	0x3e81d11e	0.25354856
163	0x3e4af228	0.19818938
164	0x3da881e9	0.082279034
165	0xbea94abf	-0.3306484
166	0x3e5ff424	0.21870476
167	0x3e3ab380	0.18232536
168	0x3e984028	0.29736447
169	0xbe780904	-0.24222189
170	0x3e6cb058	0.23114145
171	0x3ddd23f0	0.1079787
172	0x3df6b429	0.120460816
173	0xbdcbe4d0	-0.09955752
174	0x3db76197	0.08954161
175	0x3e019d47	0.12657653
176	0xbeb288ab	-0.34869894
177	0xbbda8eeb	-0.006669869
178	0x3e3a00ea	0.18164411
179	0xbdde4c3c	-0.10854384
180	0x3e3ac2dc	0.18238395
181	0x3de2ded3	0.110776566
182	0xbe83fa48	-0.25776887
183	0x3e3c382c	0.18380803
184	0xbe14187f	-0.1446247
185	0xbe23bb21	-0.15989353
186	0xbea13d75	-0.314922
187	0x3e4f60c2	0.20251754
188	0xbec3cf8a	-0.38244277
189	0x3d369fed	0.04458611
190	0xbcd72ad0	-0.026265532
191	0xbda13efa	-0.0787334
192	0xbe552977	-0.20816599
193	0x3da80ad2	0.08205189
194	0xbe2bc6b7	-0.16775022
195	0xbdbc4904	-0.09193614
196	0xbe71a7fd	-0.23599239
197	0x3e811eee	0.2521891
198	0x3d20389a	0.03911648
199	0x3e387fc0	0.18017483
200	0x3efd46bc	0.4946803
201	0xbe87efc4	-0.26550114
202	0xbd62fa68	-0.055414587
203	0xbd8a7ad1	-0.067617066
204	0xbc6084e2	-0.013703557
205	0xbe8477a1	-0.2587252
206	0xbe1ed405	-0.15510567
207	0xbe7dac87	-0.24772845
208	0x3d842b0f	0.06453525
209	0x3e55d88c	0.20883387
210	0xbc8e3a63	-0.017361825
211	0xbe579a72	-0.2105501
212	0xbcbb5600	-0.022868156
213	0xbcd9ee70	-0.026602954
214	0xbc0cdf3d	-0.008598146
215	0xbdea2e29	-0.114345856
216	0xbe0f48f6	-0.13992676
217	0xbd00f677	-0.031485047
218	0x3ddca412	0.107734814
219	0xbe4fd435	-0.20295794
220	0xbe6f7f88	-0.23388493
221	0xbe129aa8	-0.14316809
222	0xbe6881e0	-0.22705793
223	0xbd3351a8	-0.043779045
224	0xbda61e84	-0.08111289
225	0xbe26126c	-0.16217965
226	0xbd83d8a1	-0.06437803
227	0x3d950e03	0.07278063
228	0x3e0746ed	0.1321065
229	0xbe674408	-0.22584546
230	0xbe74e864	-0.23916775
231	0x3b983e9a	0.0046461346
232	0x3ecdd97b	0.40204987
233	0xbf078adf	-0.52946275
234	0x3e0de36e	0.13856289
235	0xbe216774	-0.1576212
236	0x3d0b05b9	0.033941004
237	0x3dd982fc	0.106206864
238	0xbe424085	-0.18969925
239	0x3da4aa77	0.08040326
240	0xbd5933c5	-0.053027887
241	0xb93a294f	-0.00017753731
242	0xbec40460	-0.38284588
243	0x3e3b3c37	0.18284689
244	0xbe0ac346	-0.13551053
245	0x3da058f4	0.078294665
246	0xbe55a39e	-0.20863196
247	0xbdae963d	-0.085247494
248	0x3dddf7ab	0.108382545
249	0xbe330c57	-0.17485176
250	0xbda0ef3e	-0.07858132
251	0xbcccc191	-0.024994643
252	0x3da017ed	0.078170635
253	0x3e88bff3	0.26708946
254	0xbe8cdeab	-0.27513632
255	0xbe94f7fa	-0.2909544

in_proj.bias f4 [32]
0	0xbe8f9f2d	-0.2805113
1	0x3e312f95	0.17303307
2	0x3da63022	0.08114649
3	0xbe43b4e6	-0.19111976
4	0xbc60fe2d	-0.013732475
5	0xbd490b79	-0.049083207
6	0xbe9ebf7f	-0.31005475
7	0xbe54c18f	-0.20776962
8	0xbea142c5	-0.31496254
9	0x3e971c34	0.29513705
10	0x3dc0afeb	0.09408554
11	0xbd97e7c9	-0.074172564
12	0xbde63d30	-0.11242139
13	0xbd8d3197	-0.06894224
14	0x3e525b51	0.20542647
15	0x3e46c87a	0.19412413
16	0xbeaf17ed	-0.3419794
17	0x3ec749ab	0.38923392
18	0x3d2ae5d3	0.041723084
19	0xbddd5555	-0.108072914
20	0xbd50ec94	-0.05100687
21	0x3d8167d7	0.06318634
22	0xbd68b7bf	-0.05681586
23	0x3e45b584	0.19307524
24	0x3e4b783f	0.19870089
25	0x3e48baaa	0.19602457
26	0xbcb78171	-0.02240059
27	0x3d35f8d6	0.04442676
28	0x3e4f3fe5	0.20239218
29	0xbea3e296	-0.3200881
30	0xbdb631e8	-0.088962376
31	0x3d90a654	0.070629746

temporal1.weight f4 [32, 32, 3]
0	0xbd83dfaa	-0.06439145
1	0xbd0021df	-0.031282302
2	0xbe3f36f2	-0.18673304
3	0x3dcfbde9	0.10143644
4	0x3dc74819	0.097305484
5	0x3e099d8c	0.13439006
6	0x3e17ecec	0.14836472
7	0x3da76df5	0.081752695
8	0x3dadab3c	0.08479926
9	0x3e2409e3	0.16019396
10	0x3d8c3296	0.06845586
11	0x3e407a87	0.1879674
12	0xbcbd2aed	-0.023091758
13	0xbc872f34	-0.016502
14	0xbdbf10dd	-0.09329388
15	0x3d810030	0.06298864
16	0x3ddc43f7	0.10755151
17	0x3e3944d1	0.18092658
18	0xbe1c6946	-0.15274534
19	0xbddff011	-0.10934461
20	0xbd85abb0	-0.065268874
21	0xbdda589b	-0.106614314
22	0x3d6573a9	0.056018505
23	0x3c42b832	0.011884736
24	0xbca7e421	-0.020494523
25	0xbdbcf940	-0.09227228
26	0xbd1f97ea	-0.038963236
27	0xbe5dd6e2	-0.21664003
28	0xbe82cbe2	-0.25546175
29	0xbeab5464	-0.33462822
30	0x3e455e01	0.19274141
31	0x3be7be85	0.0070722722
32	0x3d2a4d30	0.041577518
33	0x3dd949a0	0.10609746
34	0x3d460088	0.04834035
35	0xbb6ac853	-0.003582497
36	0x3d7afd23	0.061276566
37	0xbbfdf055	-0.007749597
38	0xbcbf734d	-0.02337041
39	0x3da1bf20	0.07897782
40	0xbd060c1c	-0.032726392
41	0xbca88136	-0.020569425
42	0xbe25085a	-0.16116467
43	0xbdd4b83e	-0.10386704
44	0xbe352eeb	-0.17693679
45	0xbdc0e513	-0.094186924
46	0xbda94c7c	-0.08266541
47	0xbddfe27d	-0.10931871
48	0xbe2406a1	-0.16018154
49	0xbe10ae58	-0.14129007
50	0xbe3d88de	-0.18509242
51	0x3d17386a	0.036919035
52	0xbbe2251e	-0.0069013974
53	0x3d147e5e	0.036253326
54	0x3d593ef3	0.05303855
55	0x3b84a078	0.0040474497
56	0x3ded6612	0.11591734
57	0x3dc51fe3	0.096252225
58	0x3e0f7b79	0.14011945
59	0x3d6aeea6	0.0573565
60	0xbdef0358	-0.1167056
61	0xbe11b077	-0.14227472
62	0xbd44d30f	-0.048052844
63	0xbb8ddd8f	-0.0043293904
64	0x3d8a596f	0.06755339
65	0xbd42f8c9	-0.04760054
66	0xbe3a9964	-0.18222576
67	0xbe83c2b5	-0.25734487
68	0xbe841579	-0.25797632
69	0x3e256ed6	0.16155562
70	0x3dcb7a10	0.09935391
71	0x3e0dfc52	0.13865784
72	0x3d2be8ba	0.041969992
73	0x3e175bfc	0.14781183
74	0x3de8abc1	0.113608845
75	0x3d909ede	0.070615515
76	0xbd53a44b	-0.051670354
77	0x3cc785b5	0.024355749
78	0xbdc98cc6	-0.098413035
79	0xbbef1d93	-0.0072972267
80	0xbd9fd2f6	-0.078039095
81	0x3e27335a	0.16328183
82	0x3e48aab4	0.19596368
83	0x3e4597a6	0.1929613
84	0xbe01ae1e	-0.12664077
85	0xbe08effd	-0.13372798
86	0xbda376f8	-0.07981676
87	0xbd936462	-0.07196881
88	0x3d57de10	0.05270201
89	0xbbe470e9	-0.0069714678
90	0xbe041274	-0.12897664
91	0xbd4957bb	-0.049155932
92	0xbe3dc888	-0.18533528
93	0x3bd84bc4	0.006600829
94	0x3d4ff60d	0.05077176
95	0xbd51354b	-0.051076215
96	0x3c44b8c8	0.012006946
97	0xbda8a2ce	-0.082341775
98	0x3e761ea3	0.24035124
99	0x3d4a46a7	0.049383786
100	0x3e197778	0.1498698
101	0x3d471d50	0.04861194
102	0x3e213d97	0.15746151
103	0x3e30c73c	0.17263502
104	0xbdabebf7	-0.08394616
105	0x3e4fee90	0.20305848
106	0x3e3b8f6f	0.18316434
107	0xbd8a6acd	-0.06758652
108	0x3de9a92d	0.11409221
109	0x3dda8f3d	0.10671852
110	0x3e873b5d	0.26412478
111	0x3d2cecd3	0.04221804
112	0x3d92d75d	0.071699835
113	0xbd895650	-0.06705916
114	0x3d510bf3	0.051036786
115	0xbdef5f13	-0.11688056
116	0x3e03534c	0.12824744
117	0xbc306a5b	-0.010767545
118	0xbe066ede	-0.1312823
119	0xbd709bec	-0.05874245
120	0xbd7a8983	-0.061166298
121	0xbd4e8988	-0.05042413
122	0xbdbdd11c	-0.092684
123	0xbe453b28	-0.19260848
124	0xbe41c99f	-0.18924569
125	0x3da22bc5	0.079185046
126	0x3d44df4a	0.048064508
127	0x3c72f987	0.01483
128	0xbe999ed6	-0.30003995
129	0x3e30860f	0.1723864
130	0x3d89c82b	0.06727632
131	0xbdccc9f1	-0.09999455
132	0x3de861bb	0.113467656
133	0x3d962c0c	0.0733262
134	0x3e0bbfcb	0.13647382
135	0x3cb62677	0.022235138
136	0xbdd8f9b7	-0.10594504
137	0xbe5698de	-0.20956752
138	0xbddb2fab	-0.10702451
139	0xbd580a84	-0.052744403
140	0x3db7c627	0.089733414
141	0xbe466ff4	-0.19378644
142	0xbcbedca5	-0.02329857
143	0x3e0815e5	0.13289602
144	0xbe0b7ca8	-0.13621771
145	0xbd0525fc	-0.032506928
146	0x3e4b08d4	0.19827586
147	0x3d89ed0c	0.06734666
148	0xbd38ebcc	-0.04514675
149	0xbe611a5c	-0.21982712
150	0xbd597e18	-0.053098768
151	0xbdd95218	-0.10611361
152	0xbbccaa9c	-0.006245924
153	0x3e3cc55b	0.1843466
154	0x3d0a9361	0.033831958
155	0xbd6a35f4	-0.05718036
156	0x3d1b8fa5	0.037978787
157	0xbd43cec4	-0.04780461
158	0xbb7ee6dd	-0.003889493
159	0xbd83476d	-0.06410108
160	0x3d121e0f	0.035673197
161	0xbd0bea2f	-0.03415888
162	0xbd04a2f4	-0.032381967
163	0x3d009e6d	0.031401087
164	0x3ddfa6a1	0.10920454
165	0x3c9c0a4f	0.019047884
166	0x3e4b0b90	0.1982863
167	0xbcfa1aff	-0.03053045
168	0x3da5a11d	0.080873705
169	0x3c66ad20	0.014079362
170	0xbdaa71d8	-0.08322495
171	0xbd9b999b	-0.07597657
172	0xbd1e8c00	-0.038707733
173	0xbe66a50d	-0.225239
174	0xbc0068ab	-0.007837455
175	0x3dc7fd44	0.097651035
176	0xbcd9920e	-0.026558902
177	0x3d58be82	0.052916057
178	0x3c39c66d	0.011338812
179	0xbc323f4c	-0.010879349
180	0xbbe7ee9c	-0.007078005
181	0xbe261d89	-0.16222204
182	0xbc3e4b88	-0.011614688
183	0x3bda6ff3	0.0066661774
184	0xbde04fe6	-0.109527394
185	0x3d927bf5	0.07152549
186	0xbdaa4ee0	-0.083158255
187	0xbd1b7277	-0.03795096
188	0x3d7ab3e2	0.061206706
189	0xbd836af7	-0.06416886
190	0xbda8c31e	-0.08240341
191	0xbbfd2b74	-0.0077261273
192	0x3c69bf44	0.014266793
193	0xbd754c35	-0.05988713
194	0x3e14903f	0.1450815
195	0xbd331d15	-0.043728907
196	0xbd221c52	-0.03957779
197	0xbdf5fd4e	-0.12011205
198	0x3e8d6dd3	0.27622852
199	0x3dfcd529	0.123453446
200	0x3dd40add	0.103536345
201	0x3dd01b08	0.10161406
202	0xbca73f8b	-0.020416042
203	0xbcfd3f98	-0.030914113
204	0xbed354a1	-0.41275504
205	0xbe753b7f	-0.23948477
206	0xbe6335de	-0.22188517
207	0x3d354f05	0.044264812
208	0xbce0cf54	-0.027442612
209	0xbe4d501e	-0.20050094
210	0xbdba0a81	-0.09084035
211	0xbdaf37b6	-0.08555548
212	0x3dccae08	0.09994131
213	0xbe12706b	-0.14300697
214	0xbc0c348f	-0.008557453
215	0xbe145ae9	-0.14487804
216	0xbc9d2185	-0.019181022
217	0xbd197ce6	-0.037472628
218	0xbe57f2cf	-0.21088718
219	0xbea7ab9d	-0.32748118
220	0xbeaf9f41	-0.3430119
221	0xbe49fcf1	-0.19725396
222	0x3d841ac9	0.06450421
223	0x3ca7bfe2	0.020477239
224	0xbe89797d	-0.268505
225	0x3c8924c4	0.016741164
226	0xbcfc1515	-0.030771771
227	0x3dc14b7b	0.09438225
228	0x3dd5a263	0.104313634
229	0x3bc36445	0.005962881
230	0x3db4655c	0.08808395
231	0x3e2573a1	0.1615739
232	0x3dfc7f79	0.12329001
233	0xbe0b0402	-0.13575748
234	0x3e0198c8	0.12655938
235	0x3e261e88	0.16222584
236	0x3e0b2670	0.13588881
237	0xbd86374c	-0.06553516
238	0xbcd1ccdb	-0.025610378
239	0x3dccd4e6	0.10001545
240	0xbd7cd0b6	-0.06172248
241	0xbd6498d3	-0.055809807
242	0xbdeb1266	-0.114781186
243	0xbe4ac698	-0.1980232
244	0xbe16211e	-0.1466107
245	0xbf0358a0	-0.51307106
246	0xbe47f49b	-0.19526903
247	0xbea6a4cf	-0.32547614
248	0xbeab15e9	-0.33415154
249	0x3dabafe7	0.0838316
250	0x3dd6e83c	0.10493514
251	0x3d513c20	0.05108273
252	0x3c792210	0.015205875
253	0x3d8e78f7	0.06956666
254	0xbe6eab49	-0.23307528
255	0x3e8c56dc	0.27410018

temporal1.bias f4 [32]
0	0x3d7b86a9	0.06140772
1	0xbb0ec02f	-0.002178203
2	0xbdc93cfb	-0.09826084
3	0xbd1e63fb	-0.038669568
4	0xbe8de882	-0.27716452
5	0xbe392595	-0.18080743
6	0xbe750e33	-0.23931198
7	0xbd1948d0	-0.037422955
8	0xbca7c6b6	-0.020480495
9	0xbdbf018d	-0.09326468
10	0xbe6da04a	-0.23205677
11	0x3d59433e	0.053042643
12	0xbe305e60	-0.17223501
13	0xbdf64768	-0.120253384
14	0x3dd8309b	0.10556146
15	0x3dfe392c	0.124132484
16	0xbd9baf3a	-0.07601781
17	0xbda3c7f6	-0.07997124
18	0x3d80e9e9	0.06294615
19	0xbe83272e	-0.2561583
20	0xbd4c1fd6	-0.04983505
21	0xbda36519	-0.07978267
22	0x3d852722	0.065016046
23	0xbe052b6c	-0.13004845
24	0xbe183514	-0.14863998
25	0xbdcf0f28	-0.10110313
26	0x3d4e4a46	0.0503638
27	0xbdddfa4d	-0.10838757
28	0x3e3aee48	0.1825496
29	0x3dc74dde	0.09731649
30	0xbe5dc168	-0.2165581
31	0xbe03933f	-0.12849139

temporal2.weight f4 [32, 32, 3]
0	0xbde71ce3	-0.112848066
1	0xbdbeb075	-0.09311
2	0xbdae7baf	-0.085196845
3	0x3e1182ce	0.14210054
4	0xbe044c79	-0.12919797
5	0x3dcc5486	0.09977059
6	0x3e20e7c4	0.15713412
7	0x3d7d6e1f	0.061872598
8	0xbca11608	-0.019663826
9	0xbdd45b3b	-0.10368963
10	0x3de3870e	0.11109744
11	0x3bdfe540	0.0068327487
12	0x3d6e8984	0.058236614
13	0xbe16dada	-0.14731923
14	0x3dbf2a54	0.09334245
15	0x3cccd64e	0.025004532
16	0xbcf97d27	-0.030455185
17	0xbd3ac022	-0.04559339
18	0xbd230e1c	-0.039808378
19	0x3ce4f83d	0.0279504
20	0x3d490184	0.04907371
21	0xbe8d3d86	-0.27586
22	0xbaa05d37	-0.0012234811
23	0x3da44cd2	0.08022465
24	0xbd08b088	-0.03337148
25	0x3d98a95c	0.07454178
26	0x3da2fc90	0.07958329
27	0x3bef4e56	0.0073030395
28	0x3dbef0cf	0.09323274
29	0x3be93000	0.0071163177
30	0x3bb693a5	0.0055718
31	0x3dd2e29c	0.102971286
32	0x3d1a88d4	0.037728146
33	0x3d3d5747	0.046225812
34	0x3e0d4a63	0.13797908
35	0xbd5d7c48	-0.054073602
36	0x3dca4167	0.09875756
37	0x3e02840c	0.12745684
38	0x3d8396a8	0.0642522
39	0xbc63dd90	-0.013907805
40	0xbd50feaa	-0.051024117
41	0x3cb62eb0	0.02223906
42	0xbdf69c63	-0.12041547
43	0x3d25b66f	0.040457185
44	0x3cf5a058	0.029983684
45	0x3e097652	0.13424042
46	0xbd038bba	-0.032115676
47	0xbc607448	-0.013699599
48	0x3d6ec43d	0.058292616
49	0x3d56fb35	0.052485663
50	0xbd48222b	-0.04886071
51	0x3e778ae2	0.24174073
52	0x3b333752	0.0027346206
53	0xbd05f946	-0.03270843
54	0x3d53800c	0.051635787
55	0x3d81ce45	0.06338171
56	0xbdcb92e0	-0.099401236
57	0xbd673012	-0.056442328
58	0x3dd70911	0.10499776
59	0x3acf1c00	0.0015801191
60	0xbe25647f	-0.16151617
61	0x3dc1a8b6	0.09456007
62	0x3dba9fba	0.09112497
63	0xbd1d278a	-0.038367786
64	0xbe0bc021	-0.1364751
65	0xbb996ca0	-0.0046821386
66	0x3df30bbc	0.118674725
67	0xbc9c4a81	-0.019078495
68	0x3b3dc2c0	0.0028955191
69	0x3dae5759	0.08512754
70	0xbe02882c	-0.12747258
71	0x3d8e7766	0.06956367
72	0x3d74790a	0.059685744
73	0x3d9350ac	0.07193121
74	0x3db06bf2	0.08614339
75	0xbd952c97	-0.072838955
76	0xbd92af8b	-0.071623884
77	0x3d68ae54	0.056806877
78	0x3df5c796	0.120009586
79	0xbd6b00b1	-0.057373706
80	0x3bb6f740	0.0055836737
81	0x3e0a7245	0.13520153
82	0xbe68b7c2	-0.22726348
83	0xbd952886	-0.0728312
84	0x3da1745c	0.07883522
85	0x3e0fac25	0.14030512
86	0xbd3a239f	-0.045444127
87	0xbda88b29	-0.08229668
88	0xbe4b0898	-0.19827497
89	0x3d7d19f8	0.061792344
90	0xbe10bacc	-0.14133757
91	0xbe39b324	-0.18134743
92	0x3d7a3f98	0.061095804
93	0xbd98bb77	-0.07457631
94	0x3d951f34	0.07281342
95	0x3cdd2a98	0.02699785
96	0x3dfd2b58	0.12361783
97	0x3d1df4f0	0.03856367
98	0xbd17b324	-0.037036076
99	0xbde13f8a	-0.10998447
100	0x3d83a8e3	0.06428697
101	0xbd235f5b	-0.03988586
102	0xbd88dbb5	-0.06682531
103	0x3c48bd8a	0.012252221
104	0xbdce5840	-0.10075426
105	0xbdedf84f	-0.11619627
106	0x3e86b221	0.26307777
107	0x3d70609c	0.058685884
108	0x3e5d9e7c	0.21642488
109	0xbe976508	-0.29569268
110	0x3ce12008	0.027481094
111	0xbed07ebc	-0.4072169
112	0xbdfa6772	-0.12226762
113	0xbc403798	-0.011732005
114	0x3c8d3b86	0.017240297
115	0x3cd202a5	0.025636027
116	0x3db450fe	0.088045105
117	0x3e55cf5f	0.20879887
118	0x3c18bfeb	0.009323101
119	0x3d613030	0.054977596
120	0xbe0e60a4	-0.13904053
121	0x3dc363fa	0.095405534
122	0x3d993f70	0.07482803
123	0x3daa9f2a	0.083311394
124	0x3d77d881	0.06050921
125	0xbd122354	-0.035678223
126	0x3dc557d2	0.09635891
127	0x3dded1c7	0.108798556
128	0x3cb546f8	0.022128567
129	0x3ee298c2	0.4425717
130	0x3e26f138	0.16302955
131	0xbd23dc72	-0.040005155
132	0x3d40ea9e	0.04709875
133	0x3dce9315	0.100866474
134	0xbca09774	-0.019603468
135	0xbd7b717d	-0.061387528
136	0x3e2a00ad	0.1660182
137	0xbd89b415	-0.06723801
138	0xbdf6fa9b	-0.12059518
139	0xbe2ecb0b	-0.17069642
140	0x3dbc1d26	0.09185247
141	0xbd5d05a3	-0.053960454
142	0x3dda364c	0.106548876
143	0xbc05b9d0	-0.008161977
144	0xbee47350	-0.44619226
145	0xbe890ade	-0.26766104
146	0xbd991d28	-0.07476264
147	0x3ddfafc8	0.109221995
148	0xbd82c1cf	-0.06384622
149	0x3bfa7710	0.007643588
150	0xbdcf7f59	-0.101317115
151	0xbe73693d	-0.23770614
152	0xbdcb4f90	-0.09927285
153	0xbb12f432	-0.0022423384
154	0x3dca07cc	0.098647684
155	0x3da54d98	0.080714405
156	0x3db19f4e	0.08672963
157	0xbc5087c9	-0.012727686
158	0xbd824f10	-0.06362736
159	0x3e219286	0.1577855
160	0x3dfefb65	0.124502935
161	0x3dcfc690	0.10145295
162	0x3e0852c7	0.13312827
163	0xbc694c59	-0.014239394
164	0xb9328800	-0.00017026067
165	0xbe02f419	-0.12788428
166	0xbce093ad	-0.027414167
167	0x3d544a10	0.051828444
168	0xbd0521dd	-0.032502998
169	0xbd88a47c	-0.06671998
170	0xbd04e4bc	-0.0324447
171	0x3e173368	0.14765704
172	0xbe8aa61b	-0.27079853
173	0x3d97bdac	0.07409224
174	0xbd50d971	-0.05098862
175	0xbe1852fa	-0.14875403
176	0xbd11d014	-0.03559883
177	0x3d8e44b5	0.069466986
178	0x3e24bbda	0.16087285
179	0xbd957ca9	-0.07299168
180	0xbee5161a	-0.44743425
181	0xbf05d747	-0.5228161
182	0xbdb690df	-0.08914351
183	0x3b206449	0.0024473837
184	0x3d941aa1	0.072316416
185	0x3d6c068c	0.05762343
186	0x3db21d11	0.0869695
187	0x3d563f3e	0.052306406
188	0xbc4b8998	-0.012422942
189	0xbeb5d5d5	-0.35514703
190	0xbc859b58	-0.016309425
191	0xbd86475e	-0.06556581
192	0x3db22c00	0.086997986
193	0x3e07b574	0.13252813
194	0xbd96db29	-0.0736602
195	0xbddbcb1c	-0.107320994
196	0x3df98cf4	0.12185088
197	0x3d75e6a4	0.06003441
198	0x3b91eee0	0.004453525
199	0x3d2b2c50	0.041790307
200	0xbcaee6dc	-0.021350317
201	0x3e9de561	0.30839065
202	0xbe0441d7	-0.12915741
203	0xbc859c04	-0.016309746
204	0xbda26320	-0.07929063
205	0x3e4e6ff5	0.20159896
206	0xbd5a2130	-0.053254306
207	0xbdc1aaf1	-0.094564326
208	0xbdfbaf0e	-0.122892484
209	0x3d7c67c8	0.06162241
210	0xbe3c9a9d	-0.18418355
211	0x3ea6c6af	0.3257346
212	0x3db7b60c	0.089702696
213	0x3e458165	0.19287641
214	0x3d838858	0.0642249
215	0x3c05c438	0.008164458
216	0x3e1affff	0.15136717
217	0x3dbee9a9	0.09321911
218	0x3d166524	0.03671755
219	0x3e0de048	0.13855088
220	0xbd9fd3ae	-0.078040466
221	0x3d5269a4	0.051370278
222	0x3e4a30ea	0.19745222
223	0x3cba688f	0.022754936
224	0xbdcae9de	-0.09907888
225	0x3e4427b0	0.19155765
226	0xbc2633c9	-0.0101441825
227	0xbdb23fbe	-0.08703564
228	0x3db3837e	0.087653145
229	0x3dd7dbd7	0.10539978
230	0xbcd2328c	-0.025658868
231	0x3e122779	0.1427287
232	0x3d7d9c9b	0.06191693
233	0x3c6e6c08	0.014552124
234	0x3deb1f21	0.11480547
235	0xbe0a1a5b	-0.13486616
236	0xbd8b622e	-0.06805836
237	0x3daabeb0	0.08337152
238	0x3df7931e	0.12088607
239	0xbdce06c6	-0.10059886
240	0x3e38a90a	0.18033233
241	0xbe050f70	-0.1299417
242	0xbd54090a	-0.051766433
243	0x3d58601a	0.052826025
244	0x3a77ee1c	0.00094577833
245	0xbd84c11f	-0.064821474
246	0x3d942b71	0.07234848
247	0xbd733df4	-0.059385255
248	0xbcc44678	-0.023959383
249	0xbc8f0cc7	-0.017462147
250	0x3e2750df	0.16339444
251	0x3dba4b7a	0.09096427
252	0x3c722ebc	0.01478165
253	0xbe191f66	-0.14953384
254	0xbda18e28	-0.07888442
255	0x3d804978	0.06264013

temporal2.bias f4 [32]
0	0xbcb896e3	-0.022532886
1	0x3d9a6cba	0.07540269
2	0x3dd6df42	0.10491802
3	0x3d8b3db7	0.067988805
4	0xbe19419b	-0.14966433
5	0xbcd1e4ac	-0.025621735
6	0x3dbda14a	0.09259279
7	0x3d97e1c5	0.07416109
8	0x3ba2c386	0.004967156
9	0xbd615acb	-0.055018228
10	0x3e0bdfa8	0.13659537
11	0x3dd00529	0.10157234
12	0x3dc4cdad	0.09609542
13	0xbceee65b	-0.029162576
14	0xbd97c2e0	-0.07410216
15	0xbcf2c299	-0.029633807
16	0x3e73e51b	0.23817866
17	0x3e4f11f4	0.20221692
18	0x3c09251e	0.008370666
19	0xbd78bc4a	-0.06072644
20	0xbda2cd6e	-0.07949339
21	0xbe96e56f	-0.2947192
22	0x3e20ca40	0.15702152
23	0xbe0f41b3	-0.13989906
24	0x3e2afc84	0.1669789
25	0xbd553263	-0.052050006
26	0x3d771119	0.06031904
27	0xbb9b8d2f	-0.004747055
28	0xbd7006c1	-0.05860019
29	0x3e3b82fd	0.18311687
30	0xbda65452	-0.081215516
31	0xbcc3076d	-0.023807252

spatial.weight f4 [32, 32]
0	0x3df26aad	0.11836753
1	0x3d49e600	0.04929161
2	0xbe64529b	-0.22297136
3	0x3e3570c0	0.17718792
4	0xbd523aa3	-0.05132545
5	0x3e3c61ca	0.18396679
6	0xbd9bd979	-0.07609839
7	0xbe40c5d4	-0.18825465
8	0xbc0249b7	-0.007952145
9	0xbdfda5f4	-0.12385169
10	0xbd207fb6	-0.039184295
11	0x3d1336f0	0.035941064
12	0xbdc3365c	-0.095318526
13	0xbe167020	-0.1469121
14	0x3cb5af1e	0.022178229
15	0xbb05b931	-0.0020404572
16	0x3df894b1	0.12137736
17	0x3e1d4f75	0.15362342
18	0x3dd5c652	0.10438217
19	0x3e2bab0e	0.16764471
20	0x3e3d6419	0.18495215
21	0xbe1da6fe	-0.15395734
22	0x3e7d74e1	0.24751617
23	0xbdf2ca31	-0.11854971
24	0xbdb778a6	-0.08958559
25	0xbe37f7a7	-0.17965566
26	0x3d6d0763	0.057868373
27	0xbe324d8f	-0.17412399
28	0xbd95e8f7	-0.07319825
29	0x3e2b7deb	0.16747253
30	0x3e2e1a67	0.17002259
31	0xbd74ef44	-0.059798494
32	0x3e7572e8	0.23969615
33	0x3e2a5371	0.16633393
34	0xbe7b6bb2	-0.24552801
35	0x3dde8652	0.10865463
36	0x3d8d1c35	0.06890146
37	0x3d09fa9e	0.033686273
38	0x3d9f686e	0.0778359
39	0x3d08fe2b	0.03344552
40	0xbdac8824	-0.08424404
41	0xbe308d4d	-0.17241402
42	0xbe043065	-0.12909086
43	0x3c0e15b3	0.008672166
44	0xb99b8518	-0.00029663066
45	0xbe1e923c	-0.15485471
46	0x3c959abc	0.01826226
47	0x3e10b181	0.14130212
48	0x3ea6edc7	0.32603285
49	0xbe068454	-0.13136417
50	0xbdeb7383	-0.114966415
51	0xbe5166cd	-0.20449372
52	0xbeb2852a	-0.3486722
53	0xbdc76498	-0.097359836
54	0x3b93edef	0.004514448
55	0xbeae4486	-0.34036654
56	0x3e10f86e	0.14157268
57	0xbd156437	-0.036472525
58	0xbd8af19e	-0.06784366
59	0xbe99790c	-0.29975164
60	0xbe30b4ac	-0.17256421
61	0xbc8840db	-0.016632488
62	0x3e95752d	0.2919096
63	0xbdc84485	-0.09778694
64	0x3e271f05	0.16320427
65	0xbdca12c9	-0.09866864
66	0x3db8688c	0.09004316
67	0x3d86e496	0.06586568
68	0x3e416087	0.18884479
69	0x3ea9d4cb	0.3317016
70	0xbea6d445	-0.32583824
71	0xbd7ccde2	-0.061719783
72	0x3e2d818f	0.16943954
73	0x3e0d8b6a	0.13822713
74	0x3e19c476	0.1501635
75	0xbea08eda	-0.31358987
76	0xbe480265	-0.19532163
77	0xbdebeffb	-0.11520382
78	0xbd8b6d16	-0.06807916
79	0xbc01818d	-0.0079044225
80	0xbe7cf3a5	-0.24702318
81	0xbd63895b	-0.055550914
82	0xbde9649b	-0.11396142
83	0x3ed29a02	0.41133124
84	0x3e6a6c8f	0.22892974
85	0x3d7f60bc	0.062348112
86	0x3e10fd99	0.1415924
87	0x3df25ae4	0.11833742
88	0x3e13c2a2	0.14429715
89	0x3d4b26a0	0.049597383
90	0xbc0862e2	-0.008324357
91	0xbcd786fe	-0.026309486
92	0x3e5f3ed4	0.21801311
93	0x3d55dae0	0.05221069
94	0x3c9e980e	0.019359615
95	0xbd1cd40d	-0.038288165
96	0x3e3e4cdb	0.18584006
97	0xbd4dba67	-0.050226595
98	0xbe571b06	-0.21006402
99	0x3defae9a	0.117032245
100	0xbe32004d	-0.17382927
101	0xbe0e0ef2	-0.13872889
102	0x3df8e59b	0.12153169
103	0xbe94cda2	-0.29063135
104	0x3e077cea	0.13231245
105	0x3dff2d4c	0.124598116
106	0x3e4fb962	0.20285562
107	0x3dfaeb1a	0.12251873
108	0x3daa824f	0.08325636
109	0xbe5ffa4c	-0.21872824
110	0x3d9338d0	0.071885705
111	0x3dfc0ed9	0.123075195
112	0xbd1594ef	-0.036518987
113	0xbcb28b3c	-0.021794908
114	0xbddfd1ae	-0.10928665
115	0xbcfd237c	-0.03090071
116	0x3d84b47b	0.064797364
117	0xbe1f7433	-0.1557167
118	0xbe1602bc	-0.1464948
119	0x3de2dfba	0.11077829
120	0x3e22ec59	0.15910472
121	0x3e1374c1	0.14400007
122	0xbd089a42	-0.033350237
123	0xbe2c26b0	-0.16811633
124	0xbdd475c2	-0.10374023
125	0x3e044a42	0.12918952
126	0x3e2184ff	0.1577339
127	0x3e15c53c	0.1462602
128	0xbd3d2c65	-0.046184916
129	0x3e18f5dc	0.14937538
130	0xbc2dd1fd	-0.010609147
131	0x3d12de01	0.03585625
132	0x3d84dbd8	0.06487244
133	0x3e34c946	0.17654905
134	0x3d185a89	0.037195716
135	0x3b897897	0.0041952836
136	0x3d88fe1a	0.06689091
137	0x3e084830	0.13308787
138	0xbd3c9aa7	-0.046045925
139	0x3e21e805	0.15811165
140	0xbd25d401	-0.040485386
141	0x3e3fbb84	0.18723875
142	0x3de3fd5b	0.11132308
143	0xbda7d495	-0.08194844
144	0x3e8d3826	0.275819
145	0x3dcc8716	0.09986703
146	0xbe031bf1	-0.12803628
147	0xbef94af0	-0.48689985
148	0xbe26cd41	-0.16289236
149	0x3de95b0f	0.11394321
150	0xbdc554f8	-0.09635347
151	0x39276b55	0.00015966345
152	0x3e3af862	0.18258813
153	0x3e165aac	0.14683026
154	0xbd9c5391	-0.076331265
155	0x3dfbffe6	0.12304668
156	0x3e01f6e7	0.12691842
157	0x3db894ff	0.09012794
158	0xbccefcf7	-0.025267107
159	0x3d866fe2	0.06564309
160	0x3c1dc0e7	0.009628511
161	0x3e01f9c0	0.12692928
162	0xbd744bd9	-0.059642646
163	0xbe000680	-0.1250248
164	0xbe401d0b	-0.18761079
165	0x3d91f76a	0.071272686
166	0xbdb1db93	-0.086844586
167	0x3d162759	0.03665862
168	0xbdb80fee	-0.08987413
169	0x3df260fb	0.11834904
170	0x3d9b4b38	0.07582706
171	0xbd9c0c86	-0.07619576
172	0x3dfc4818	0.12318438
173	0x3e856d97	0.26060173
174	0x3dea94c4	0.11454156
175	0x3cc7dba7	0.02439673
176	0x3e92b3ef	0.28652903
177	0xbda7bd79	-0.08190436
178	0x3d314cc6	0.043286107
179	0xbf20d626	-0.62826765
180	0x3c06181b	0.008184458
181	0x3e8ccef1	0.27501634
182	0xbb9e6ab1	-0.004834496
183	0x3e973252	0.2953058
184	0xbe01acfe	-0.12663648
185	0x3d4154d7	0.04720005
186	0xbdc9ccf4	-0.09853545
187	0xbdb5f464	-0.088845044
188	0x3e652b4e	0.223798
189	0xbd661915	-0.056176264
190	0xbda081a3	-0.07837226
191	0x3d98582e	0.07438694
192	0x3dad4deb	0.08462127
193	0xbe2d300f	-0.16912864
194	0xbcdadee4	-0.02671761
195	0xbcb06b0e	-0.021535423
196	0x3e04bfcd	0.12963791
197	0xb988b356	-0.00026073557
198	0x3d4881b6	0.048951827
199	0x3d1521ff	0.036409374
200	0xbdc2c93d	-0.095110394
201	0x3d5ce428	0.053928524
202	0x3d9a1061	0.07522655
203	0xbe78f4af	-0.2431209
204	0xbb3cd99a	-0.0028816224
205	0xb9e913f6	-0.00044456095
206	0x3df1f254	0.118137985
207	0xbdc71b5b	-0.097220145
208	0xbcd5f24a	-0.026116509
209	0xbe1f02e3	-0.15528445
210	0x3deeaeb9	0.116544195
211	0x3e970f22	0.29503733
212	0xbd22e541	-0.039769415
213	0xbe9a5aaf	-0.3014731
214	0x3dd6228d	0.10455809
215	0x3ce42585	0.027849922
216	0x3db641bc	0.088992566
217	0x3a083da7	0.0005197175
218	0x3db4035a	0.08789702
219	0x3e56e47e	0.209856
220	0x3da2ea09	0.07954795
221	0xbdae4ac4	-0.08510354
222	0xbcebae8e	-0.028769758
223	0xbe0da301	-0.13831712
224	0xbdf7c51d	-0.12098143
225	0xbcb0e771	-0.021594735
226	0x3d61a5b2	0.05508966
227	0x3dce985e	0.100876555
228	0xbcbb0558	-0.022829697
229	0x3c168ddb	0.009189094
230	0xbc4f56ac	-0.0126549415
231	0x3e368d28	0.17827284
232	0x3e184d0e	0.14873144
233	0x3dd681c1	0.10473967
234	0xbe2f50ff	-0.17120741
235	0x3dc78ee8	0.09744054
236	0xbdcd4b86	-0.100241706
237	0x3d4a4c53	0.049389195
238	0x3da91eb3	0.082578085
239	0x3db9d13c	0.090731114
240	0xbd36390e	-0.044488005
241	0x3e41e0de	0.18933436
242	0xbdaa3939	-0.083116956
243	0xbf27dec0	-0.65574265
244	0x3d199e4d	0.037504483
245	0xbe930475	-0.28714338
246	0x3d3ecda7	0.046582844
247	0xbd842da2	-0.06454016
248	0xbd7e1083	-0.062027466
249	0xbd6be7a2	-0.05759395
250	0xbc8917d9	-0.016735004
251	0x3d3bf00d	0.045883227
252	0x3dd6b4f6	0.10483734
253	0xbd7aa439	-0.06119177
254	0x3c72d048	0.014820166
255	0x3d8b2e42	0.06795932

spatial.bias f4 [32]
0	0x3ea663cf	0.32498023
1	0x3e4f1697	0.20223461
2	0x3e5792dc	0.21052116
3	0xbbcf83d7	-0.006332855
4	0x3daa3a75	0.08311931
5	0x3d8f1217	0.06985872
6	0x3e680e03	0.22661595
7	0x3ce8e6ed	0.028430426
8	0x3dbb39e7	0.09141903
9	0x3d63809b	0.05554257
10	0xbd1ea4cf	-0.038731392
11	0x3d21f68c	0.039541766
12	0x3e6f1188	0.23346531
13	0xbe6a98a0	-0.22909784
14	0x3df466dc	0.11933681
15	0xbc984e5d	-0.018592054
16	0xbcf95b36	-0.030439
17	0xbd83c2bd	-0.06433628
18	0xbe965ec8	-0.29369187
19	0x3de58d3e	0.112085804
20	0x3e39710c	0.1810953
21	0xbdf0dfc3	-0.11761429
22	0x3d7f5b78	0.06234309
23	0xbe4e01da	-0.20117894
24	0xbe112f4a	-0.14178196
25	0xbe82b8e3	-0.25531682
26	0x3e723e2f	0.23656534
27	0x3e9aceb3	0.30235824
28	0x3d19a19b	0.037507635
29	0x3e2ef4b9	0.17085542
30	0xbd5fd46a	-0.054645933
31	0x3e7a71c2	0.24457458

out_proj.weight f4 [3, 32]
0	0xbe480fca	-0.19537273
1	0x3dc11228	0.09427291
2	0xbe80eeff	-0.2518234
3	0xbd1ba4fd	-0.037999142
4	0x3e220ea8	0.15825903
5	0x3dfae2f8	0.12250322
6	0xbdc0b148	-0.09408814
7	0x3cfedce1	0.031111183
8	0xbd727121	-0.05918992
9	0xba507a34	-0.000795278
10	0x3c31e5dd	0.010858026
11	0xbadb5bb8	-0.0016735708
12	0xbe3bcdff	-0.183403
13	0xbb934c2a	-0.0044951634
14	0xbde7ba33	-0.113148116
15	0x3de0e5f0	0.10981357
16	0x3d606d4d	0.054791737
17	0x3e099aa8	0.13437903
18	0xbe0677b0	-0.13131595
19	0xbc9799c1	-0.018505933
20	0x3daaede6	0.08346157
21	0xbe108b1b	-0.14115565
22	0xbd9076bc	-0.07053897
23	0xbdcb13f2	-0.09915914
24	0xbd9be830	-0.076126456
25	0xbdcf30d5	-0.10116736
26	0x3defc6ec	0.11707863
27	0xbc56e559	-0.013116204
28	0xbd7158eb	-0.05892269
29	0xbdfaa525	-0.1223853
30	0x3e0ad550	0.13557935
31	0x3d8e02e1	0.06934143
32	0xbe3adb88	-0.18247807
33	0x3d37874e	0.04480677
34	0xbe1b8336	-0.15186772
35	0xbc407466	-0.011746502
36	0x3c48a17a	0.01224553
37	0x3e0d4212	0.13794735
38	0xbda664c2	-0.08124687
39	0xb9cd1f2e	-0.00039123878
40	0xbe2c7779	-0.1684245
41	0x3dae59b9	0.08513207
42	0x3c86f0a7	0.016472174
43	0xbc0f4f51	-0.008746938
44	0xbd69a5fd	-0.057043064
45	0x3d51d834	0.051231578
46	0xbe334894	-0.17508155
47	0x3e1ed4c4	0.15510851
48	0x3d1735ef	0.03691667
49	0x3db2347e	0.08701418
50	0x3e79acc8	0.24382317
51	0x3dcb45ad	0.09925399
52	0x3e189b55	0.14903004
53	0x3e2a12c6	0.16608724
54	0x3c07c6ff	0.00828719
55	0xbbd69acc	-0.006549215
56	0xbd9ec191	-0.077517636
57	0xbd8240a1	-0.06359983
58	0xbd6e1da7	-0.058133747
59	0xbe0dc8a6	-0.13846073
60	0x3db3a6c3	0.08772042
61	0xbe47191c	-0.19443172
62	0xbdddef28	-0.10836631
63	0xbd9f247b	-0.0777063
64	0xbe102038	-0.1407479
65	0x3e219331	0.15778805
66	0x3dcb0610	0.09913266
67	0xbdd3e7f2	-0.103469744
68	0x3e0a48cc	0.13504332
69	0x3dba5d33	0.090998076
70	0x3d4c6dbd	0.049909342
71	0x3c2ea58d	0.010659588
72	0xbdd6d269	-0.10489351
73	0x3dc84a24	0.09779766
74	0x3c6705be	0.01410049
75	0x3d1a0d92	0.037610598
76	0xbd4c3a99	-0.04986057
77	0x3d863350	0.06552756
78	0xbe81bd55	-0.2533976
79	0xbc74cf4a	-0.014942
80	0xbda920cd	-0.082582094
81	0xbdac6451	-0.08417571
82	0x3d59c027	0.053161766
83	0xbe2bcaac	-0.16776532
84	0x3e22efc3	0.15911774
85	0x3c767099	0.015041494
86	0xbd9115d7	-0.07084244
87	0x3cf883e6	0.030336332
88	0xbe0446a7	-0.12917577
89	0x3e0cc49e	0.13746879
90	0x3d681f62	0.056670554
91	0xbe02d32a	-0.12775865
92	0x3cefc97a	0.029270876
93	0xbe54eff4	-0.2079466
94	0x3da7803b	0.08178755
95	0xbb0f61a8	-0.0021878276

out_proj.bias f4 [3]
0	0xbda22f21	-0.079191454
1	0x3ca9fe1a	0.020751048
2	0xbd7001cf	-0.058595475
